face_hendrik.tflite (tflite, 612456 bytes, 14 tensors)

sequential/conv2d/Conv2D f4 [16, 5, 5, 3]
00000000: cd94 93bd 730e 74bd ba99 9c3d ae15 db3d
00000010: 4b45 c83d be75 e83d b14e e93d 2215 cebd
00000020: 7d59 0b3c 0175 9bbd 4058 6bbd 8b1a 573c
00000030: f704 f9bb 2ff0 e0bd 9538 5cbd 39d4 893d
00000040: 0d1c 9dbc dee8 3c3d e7d0 993d 5f14 56bd
00000050: 165b cf3d 7210 0bbc d891 963d 21f5 4e3d
00000060: 21b1 283d b367 bc3d 8c5e 86bd 9dd5 d93d
00000070: fec3 4cbd bb32 293d 0b90 69bd 0aa9 913c
00000080: 97b0 14bd a6dd 98bc def9 653d 0d86 473b
00000090: 026a 82bc 4bdb b4bb 6a77 0ebd 3604 923b
000000a0: 988e b13d 7620 e53d bc44 b9bd 0292 8ebd
000000b0: a8a5 88bd 2ef4 f53d e795 883d a4b4 35bd
000000c0: 7867 563d 8550 6b3d bee6 b23d 5e92 d2bd
000000d0: e27e ec3b 76e5 f83d e6b7 c1bd 830a 9f3d
000000e0: 1d02 e2bc 8a25 d03a ed12 1c3d cf7b b73b
000000f0: 3696 ccbd 2df2 86bd abf7 f2bb 2cdb 10bd
00000100: 85b0 f0bd fb00 e3bc 9470 b5bd 08ad debd
00000110: e94f a43b b1f2 b4bc 74a1 d33d cb7e af3d
00000120: ee7b 53bd fecc 88bd 34db 253d 64bc cdbc
00000130: 02ad b3bd 4804 39bd 177f ae3d 9b03 9a3d
00000140: 287e d63d f6bb d0bd dd1e 0c3d bca8 0f3d
00000150: 3b57 ad3d 0640 7cbd 62c4 b4bd da3d 93bd
00000160: 2a49 febb 62d0 0c3d 05f1 66bd 1ed5 f53d
00000170: 688f 88bd 4266 df3d e422 36bc 7574 323d
00000180: a2af 92bd 0ba9 e43d fad9 b7bc 29e3 9cbd
00000190: 9fd7 423c b7ac 91bd 776f 08bd bcf6 bfbd
000001a0: de6c cdbc 3111 e5bc 7f7b 263b 45cd d23c
000001b0: 3a02 90bc be91 c9bc 1612 0c3d 1033 d33c
000001c0: 83c3 923d a0db a6bd ba8e c83d e554 fabc
000001d0: 9941 1f3c fafd df3d 14b1 6abd 0e0f 91bd
000001e0: 3000 a83d f7ec b43d 18bc c43d dffd aabd
000001f0: de48 9ebc 9980 a13d 9e80 ff3b 21f1 813d
00000200: 0221 90ba 7cf2 a33c db0f 7c3d 4546 fc3c
00000210: ede7 9a3d e44c bc3d b36c aebd 117c 7dbd
00000220: 8868 f93d 811b 80bc 2144 b7bd 4116 64bd
00000230: 2882 c9bd 4701 adbb 9702 d8bb 94da bdbc
00000240: 42e6 a4bd 560b 233d d1ff d3bd 72aa 853c
00000250: 4b5b 30bc 6052 703d a2e1 813d 0737 d13c
00000260: 5344 ecbd b290 3fbd ad33 56bc 73f7 a5ba
00000270: b09a be3d 943a 483c d27e 1ebc da63 5ebd
00000280: ad89 e6bd d45c 383d f0a1 a4bd 0ddc 77bc
00000290: b3e7 e03d 687f 2f3d f865 7b3c c415 9e3d
000002a0: 13c9 8f3d 38e3 a43d c57f c1bd 69d8 a4bb
000002b0: 8537 d13c 1aa2 823d cf74 613c 953d 8cbb
000002c0: 8c87 b1bd 5d6c 72bd 02ba 89bd 4ad0 cd3c
000002d0: 8fa3 acbd 42ad f13c 24a6 d33c ea84 d33d
000002e0: 14c4 6a3d 6f0a db3d 769a 64bd 3454 18bd
000002f0: b1f8 c6bd 93a8 de3d 26a0 f1bd eb59 8e3d
00000300: 3613 c3bd f3b6 503d 703d 063d ffae 37bd
00000310: 5ffe 35bd db50 833d 82c3 833d bbd0 a73d
00000320: 769f ba3c f9ff d0bc 797a 72bd a54d d3bd
00000330: c5c6 41bd 9f6f 04bd bb0d a73d a5f5 993d
00000340: 5c2d 3dbc 4d49 c13d 4fa3 76bd ba84 90bd
00000350: b395 3a3d 6d92 ae3d 87d5 babd 93c2 2dbc
00000360: 127b df3c 82a3 bdbb 65ec 74bd eef2 df3d
00000370: fbe5 82bc 1d54 943d dd24 87bc 5d12 ccbd
00000380: b610 81bd bd22 203c 1b41 013e 81e5 3f3d
00000390: 698d 1fbc 79fd b03d 52eb a53c e7c4 25bd
000003a0: 7c79 bcbd 16f7 a1bd 0536 a5bd ecbf 83bd
000003b0: a473 50bd 4f8e d43d c7b4 52bd 5998 88bd
000003c0: dd83 833d 2f27 9fbd e48b c73d ea22 0fbd
000003d0: 3a4b 263d 8fdc a1bd 2047 0f3d 0b0e de3d
000003e0: 6125 963d 7d97 3a3d b2bb f5bb d64c b43d
000003f0: 13dc aa3d ab8d 203d 739a eabd a1e5 773d
-0.07206116 -0.059584092 0.076465085 0.106974944 0.097788416 0.113505825 0.11391962 -0.100626245
0.008505222 -0.07590676 -0.05745721 0.013128887 -0.007599469 -0.109833114 -0.0537649 0.067299314
-0.019178415 0.046120517 0.07510548 -0.05226552 0.10124795 -0.008487808 0.07352036 0.050526742
0.04118455 0.091994666 -0.06561002 0.106364466 -0.0499916 0.041308146 -0.057022136 0.0177808
-0.03630122 -0.018660378 0.056146495 0.003044489 -0.01591969 -0.005519306 -0.03478185 0.0044560684
0.08669776 0.11187832 -0.09046313 -0.069614425 -0.066722214 0.12009464 0.066692166 -0.044361725
0.05234477 0.057449836 0.08735417 -0.102818236 0.007217274 0.12153141 -0.09458904 0.07765677
-0.027588898 0.0015880328 0.038103987 0.005599476 -0.09989588 -0.0658916 -0.007414778 -0.03536527
-0.117524184 -0.027710428 -0.08859363 -0.10872847 0.005014409 -0.02208838 0.10333529 0.08569106
-0.05163186 -0.06679724 0.04049225 -0.025114246 -0.08773233 -0.0451701 0.08520334 0.07520219
0.10473281 -0.10192101 0.03420912 0.035073027 0.084639035 -0.061584495 -0.088265195 -0.071895316
-0.0077601867 0.034378417 -0.056382198 0.120035395 -0.066679776 0.10908176 -0.011116717 0.043568093
-0.071624056 0.11165055 -0.022442807 -0.07660515 0.011892228 -0.07113021 -0.033309426 -0.09373233
-0.025076326 -0.027962299 0.00254032 0.025732646 -0.017579187 -0.024605628 0.034196936 0.025781184
0.07166197 -0.08147359 0.09792848 -0.030558059 0.00972023 0.10937114 -0.05729778 -0.070829496
0.08203161 0.0883426 0.096061885 -0.08349203 -0.019321855 0.07885856 0.007797315 0.0634482
-0.0010996165 0.020013086 0.06153856 0.030795226 0.075637676 0.09194353 -0.085168265 -0.061885897
0.12178141 -0.015638115 -0.089485414 -0.055685285 -0.098392785 -0.0052796933 -0.0065921056 -0.023175515
-0.08051731 0.039805733 -0.103515275 0.016316626 -0.010763953 0.05867231 0.06341864 0.025538934
-0.11536469 -0.04676885 -0.013073844 -0.0012662247 0.09306848 0.012220997 -0.009673791 -0.054294445
-0.11256728 0.045010403 -0.080386996 -0.015128148 0.10981693 0.042846113 0.015344135 0.07718995
0.07020774 0.08051151 -0.09448198 -0.005030681 0.02553917 0.06378575 0.0137607595 -0.004279802
-0.08668432 -0.059185375 -0.06724931 0.025123734 -0.08429634 0.029501561 0.025836058 0.10328086
0.0573159 0.106953494 -0.055811368 -0.037189677 -0.09715403 0.10871997 -0.11798124 0.06950744
-0.095251486 0.050955724 0.032773435 -0.044844624 -0.04443204 0.06411906 0.064337745 0.08194109
0.022781115 -0.025512682 -0.05919883 -0.10317544 -0.047308702 -0.032333013 0.08156916 0.07517556
-0.011546459 0.09437809 -0.060214337 -0.070565656 0.04555292 0.08524022 -0.09122758 -0.010605472
0.027280364 -0.005787314 -0.059795756 0.10935007 -0.015978804 0.07242606 -0.01649707 -0.0996444
-0.063020155 0.009773907 0.12622492 0.04684973 -0.009738305 0.08642096 0.020253811 -0.040470984
-0.09202859 -0.07908456 -0.08066944 -0.064330906 -0.050891533 0.10378706 -0.051441934 -0.06669683
0.06421635 -0.077711456 0.09743479 -0.034945406 0.040599085 -0.07903396 0.03497994 0.10842522
0.07331348 0.045554627 -0.0074991817 0.08803718 0.08342757 0.039197605 -0.1145524 0.060521726

sequential/conv2d/BiasAdd/ReadVariableOp/resource f4 [16]
00000000: 8daa 753b 0025 1b3c 6260 9bbb 871b f93b
00000010: eab1 013b a302 7dbb df03 88ba 584c 0ebc
00000020: b18d cab9 699c f139 d338 553b 5261 2f3b
00000030: cf5f 763c bc53 81bc fc79 a03c 2d7e 28bc
0.003748569 0.009469271 -0.0047417143 0.0076021585 0.0019789883 -0.0038606308 -0.001037713 -0.008685194
-0.0003863401 0.00046083637 0.003253509 0.0026760888 0.015037491 -0.015786998 0.019589417 -0.010283989

sequential/conv2d_1/Conv2D f4 [32, 3, 3, 16]
00000000: 3ed0 f83d a77e 56bd 8d35 f2bd fda3 21bd
00000010: 6bb8 a83d 0397 11bd c157 703d 73bb bf3d
00000020: fd12 82bc 1dab ca3c 8cc4 7e3d 2d4b 8bbd
00000030: 4592 b8bc 20f0 bd3d 4cb9 2d3d c114 d3bd
00000040: 93e1 8a3c 4a68 023d 8bce 61bd 4991 d3bc
00000050: d628 703d 6267 74bd 99f1 55bd 4795 f6bd
00000060: 5914 a93d 8683 8a3d fc9e bdbd 9974 3e3d
00000070: 3256 febc 2d51 a83d 28ba c03d f88e e7b9
00000080: 72e5 74bd fc78 cebc 5cef 933d 4d74 e0bd
00000090: 93d8 903d 9e9c d0bb 1563 4fbd 36aa 5ebd
000000a0: e115 de3d f062 b93d 6b5b acbc 96f7 a13d
000000b0: 3eb0 cebd ac6f ad3c 4a40 373d 43d6 dfbd
000000c0: 6b4b 853d 7b2e ba3d 4380 76bd dce5 893c
000000d0: 42d8 a93b 48d3 01bc f3c4 5b3d 84fc 92bd
000000e0: 5a3e 833c e831 d33d 700a 5d3d 283b b73c
000000f0: 61dc 95bd 5a74 69bd f643 6b3c 0f50 b93d
00000100: 69d4 20bd 7a02 ddbc a3e8 383d a0c3 cb3d
00000110: d2f6 a4bd 2690 7fbd 7e31 a03d 88d4 babd
00000120: beb5 b3bd 26a5 58bd 7c6f 37bd 2a5e 39bd
00000130: c045 3e3d 6dab 8a3d 59af 0ebb 36a2 2b3d
00000140: daf0 d2bd bca4 a13d f70d debd bb4e 563d
00000150: 8de9 f43d fa0b 993c b4a2 403d ab6e 993d
00000160: 5167 15bd b6a4 35bd b871 d4bd 7439 d0bd
00000170: 0cd6 a03d ce7c 21bd d00b 983d e59e 0fbd
00000180: 293f 2abd e137 033e 35bb 683b cd4c b73c
00000190: eb0c 67bd f164 143d e629 07bd 07b1 c8bd
000001a0: 40ae 823c d823 ca3d 7901 073c 3c15 c33d
000001b0: 94c4 583d 971d 80bc 6bb3 063d 84b9 023d
000001c0: 85d1 9b3d b434 073e 5117 053c 8215 90bd
000001d0: 2faa e63d a11c 84bc b90b e9bc 5ce8 af3d
000001e0: 518a f5bc ae14 d43d de60 6fbd e0bd b63d
000001f0: 434e c6bd 0a8a b63d 526d f2bc 49f2 d7bb
00000200: b88e b6bc 4745 d03d e3f1 1cbc 166c ce3d
00000210: c4f9 bb3d 0fee 50bd 19ba 3ebd 4ad8 dd3c
00000220: 578d 9d3d ddb8 d0bd 66d9 c43c 9153 adbd
00000230: 0825 753d 99db 6fbd fa7f 023e e39a 943d
00000240: 6f2e 2cbd 77ba cebd dd18 083b ade5 ebbc
00000250: a79a 31bd d562 aabd 4b22 2e3d 3a63 92bd
00000260: 374d 46bd abf6 a13b 3524 75bd 4f0b c6bd
00000270: 3711 efbd a172 133d e214 7bbd e46c 233d
00000280: 338d a83d a830 303c eecf 05be f564 d73c
00000290: f57b 90bd f5d6 30bd 2ac4 093d 4bc5 c33d
000002a0: 748a aabd 99d2 a93d 2e48 5b3d 119a dcbd
000002b0: 7e72 f7bd 03ec 53bd f672 cfbc 6d57 9f3c
000002c0: 1783 8b3d 9b19 d23d d7e3 1ebb 847f e9bd
000002d0: 3e26 be3d 7bad b9bd 77ff cfbd c8ce d6bd
000002e0: dfbe 743d 7424 623d b246 6abd b5e2 79bd
000002f0: cb61 8ebd 7675 90bc c4ff e93d bfc6 80bc
00000300: 4adb 9bbd f709 543c 446b 43bd ca72 893d
00000310: aab8 973a 82a4 533d 0d32 5dbd 6848 afbc
00000320: 3c88 793d 103d 00bd 3a48 6bbd a578 263c
00000330: 429a cfbd 0398 a23d 26e3 a0bd 8272 88bd
00000340: 7953 a7bd 0f7e bcbd 3749 d0bd a078 29bd
00000350: d9c4 d43c 6c18 693d 3a3f 6bbd 7fe0 743c
00000360: d4d7 93bd 0697 a43c 2324 853c e5cd 14bd
00000370: 18f7 8fbd 83d6 843d 3a36 2a3d d652 6d3c
00000380: df2c 8fbd eed0 ae3d c75b 883d 5c29 16bc
00000390: 82a9 ab3d 62d5 32bd 117c 703d b89f d03d
000003a0: ae64 4bbc eed5 dd3b 1a56 d73d 3e13 11bd
000003b0: 3852 553d da5d b03c 11dd de3d 87dd 3d3d
000003c0: 380f a83d 4cef b8bd 6bfc 613d 3c08 da3d
000003d0: 6734 a33c 4067 04be 4923 a8bc 867f 16bd
000003e0: 8482 c5bd 10eb a6bd df16 4e3d 0c06 b5bd
000003f0: 4020 44bd 36c4 e03d ec4c 5f3d 8860 bf3d
0.12149094 -0.05236688 -0.1182662 -0.039463032 0.082383 -0.035544407 0.05867744 0.09361925
-0.015878195 0.024739796 0.06219916 -0.06801448 -0.022530684 0.09274316 0.04241304 -0.10306693
0.016953265 0.03183774 -0.055128615 -0.025826113 0.058632694 -0.059668906 -0.05223236 -0.12040191
0.08255834 0.06763367 -0.092588395 0.046497915 -0.03104696 0.08218608 0.094105065 -0.00044166273
-0.05978913 -0.025204174 0.072233886 -0.109596826 0.07072558 -0.0063663265 -0.0506316 -0.054361545
0.10844017 0.09052074 -0.021039685 0.079085514 -0.10092209 0.021171413 0.044739045 -0.10929539
0.065085255 0.09090897 -0.060180914 0.016833238 0.0051832506 -0.0079239085 0.053654622 -0.0717707
0.016020942 0.10312253 0.053965032 0.022367075 -0.073174246 -0.056995727 0.014359465 0.09048473
-0.03926507 -0.02697872 0.045143735 0.09949422 -0.0805489 -0.06239333 0.0782194 -0.09122568
-0.08774899 -0.052891873 -0.044784054 -0.045255817 0.046453238 0.06770978 -0.0021771996 0.041902743
-0.10299845 0.07892749 -0.10842507 0.052321177 0.11958609 0.018682469 0.047030166 0.07491811
-0.036475483 -0.044346534 -0.10373253 -0.10167208 0.07853326 -0.039425664 0.07424128 -0.035063643
-0.04156414 0.12814285 0.0035511975 0.022375489 -0.056408804 0.036229078 -0.03299894 -0.0979939
0.01595223 0.09870118 0.008240097 0.095255345 0.052921847 -0.01563911 0.03288595 0.031915203
0.07608322 0.13203698 0.008123235 -0.07035352 0.11262929 -0.016126933 -0.028447973 0.08589241
-0.029973181 0.10355507 -0.05844199 0.089229345 -0.09682896 0.089130476 -0.029593144 -0.006590162
-0.02228485 0.101694636 -0.009579155 0.100792095 0.091784984 -0.05100828 -0.046564195 0.027080674
0.07692974 -0.1019151 0.024029445 -0.08463205 0.05984977 -0.058559034 0.12744132 0.07256105
-0.04203647 -0.10094159 0.0020766773 -0.028796041 -0.04336038 -0.08319632 0.042513173 -0.07147832
-0.04841348 0.004942735 -0.059848983 -0.09670126 -0.11673205 0.03599799 -0.061299212 0.039898768
0.082300566 0.010753788 -0.130676 0.026293257 -0.07054893 -0.04317375 0.033634342 0.09559115
-0.08327189 0.082921214 0.053535633 -0.10771573 -0.120823845 -0.05173875 -0.025323372 0.019450868
0.06812113 0.1025879 -0.002424469 -0.11401275 0.09284638 -0.09066292 -0.10156148 -0.10488659
0.05975234 0.055210546 -0.057196327 -0.06100722 -0.06952246 -0.017634135 0.114257365 -0.01571977
-0.076101854 0.012941829 -0.04770972 0.067113474 0.001157542 0.05167056 -0.05400281 -0.02139683
0.06092094 -0.031308234 -0.057441927 0.0101606 -0.10136844 0.0793915 -0.07855825 -0.06662466
-0.08170218 -0.09203731 -0.101702146 -0.041374803 0.02597277 0.056908056 -0.057433344 0.014946102
-0.072189 0.020091545 0.016252583 -0.03632917 -0.07029551 0.06486227 0.04155562 0.014485082
-0.0699098 0.08535944 0.0665813 -0.009165134 0.083819404 -0.04366053 0.05871207 0.10186714
-0.012414141 0.006769887 0.105144694 -0.03541874 0.052080363 0.021529127 0.10882009 0.046353843
0.08206028 -0.09030017 0.055172365 0.10646102 0.019922448 -0.12930012 -0.020524638 -0.03674271
-0.096440345 -0.08150303 0.05031478 -0.08839044 -0.04788232 0.10974924 0.054516718 0.09344584

sequential/conv2d_1/BiasAdd/ReadVariableOp/resource f4 [32]
00000000: 4e2a 313a 13d6 b2bb 3267 00bc 54a8 013b
00000010: cb55 e43b 139e 953c d140 06bc 7198 393b
00000020: 746a 2abb 2d38 83bc 2d56 a33b b882 093b
00000030: d929 a8bc 76b9 69bc f4f1 84bb 56c5 f9bb
00000040: 48dc 7b3b ef7b 2b3c d750 683c 06e7 713b
00000050: 1bd1 22bb 91a9 1a3c 8e93 b83c 20e0 a53b
00000060: 3873 5e3c d2cc 283d f48d 46bc e933 2abc
00000070: b840 d13c e726 f0bb bd6b cd3b a8ac de3a
0.0006758318 -0.0054576485 -0.007837104 0.001978417 0.006968235 0.018263852 -0.008194164 0.0028319622
-0.0026003392 -0.016017998 0.004984638 0.0020982455 -0.020527767 -0.014265409 -0.0040571634 -0.007622401
0.0038430858 0.01046656 0.01417943 0.0036911382 -0.0024843875 0.009439842 0.022531297 0.005062118
0.013577275 0.041210957 -0.012118805 -0.010388353 0.025543556 -0.0073288563 0.006268947 0.0016988711

sequential/conv2d_2/Conv2D f4 [64, 3, 3, 32]
00000000: 93c9 b23c 68a3 813d 56bb 93bd 3638 a93d
00000010: 4258 b33c 0196 a03d f191 05bd 8af0 cd3a
00000020: 4a31 863a ea42 a53d e6fe 9c3d b53a bdbc
00000030: 5cbc b03c 82a7 ef3c 8cce a6bd 7c0c 873d
00000040: d8a5 643d 62fd 59bc 4448 093d bb8e 74bd
00000050: f88e 8cbd 9601 b1bc 7f19 503d 2567 3dbc
00000060: 5b4e 1d3d b683 6a3d d4d7 773d 713a 38bc
00000070: 1c82 a23d 6b56 3e3d cdbc 9c3d aac1 4cbc
00000080: 330b 9d3d 73a8 9cbd d838 9c3c 3162 913d
00000090: d675 a13c 3080 683d 977b 4abc 3453 0fbd
000000a0: a5c8 9f3c f4a6 773c 7267 a13d 26f9 29bd
000000b0: 7ca0 003d c910 023a 65c8 53bd 1733 1fbd
000000c0: ac8c e73b 166b b83d 2eda 953d 8daa 59bd
000000d0: 8fcc ef3a 206b b8bc a8df 433b 9529 54bc
000000e0: 9402 d6bc 19b7 b93c 7d20 cbbd 984a f9bc
000000f0: c0ca 4fbd 87bb 7b3d 8d0f 7ebd e507 15bd
00000100: 5da6 66bd 8605 5d3d 3419 f8bc 11cd a03d
00000110: 2a49 d2bc b822 b0bc 453c 5e3d 45c2 2e3d
00000120: 065a b23c 2443 a53d a4eb 8dbd bef4 c6bc
00000130: 35c9 163d 7e4c 943d d260 abbd bc64 8a3d
00000140: 3d4c 86bd c2db 33bd 5c0f f5bb 73de 87bd
00000150: e14e 45bd 0154 463d 967e 6f3d eea8 42bb
00000160: cf52 68bd 9cfe 8c3d 2e3d 343d 8866 94bd
00000170: bad6 89bd f3e4 653c 83fa 423d 2c29 493d
00000180: 28b8 40bd 4a72 2e3d 0bb2 a8bd 6db1 14bd
00000190: 7c2c a53d 7a83 913d 8cfa 8ebb 5b5d 27bd
000001a0: 2d10 8d3d 2a0f f6bc f26d 45bd 693e 80bd
000001b0: 04f4 a7bd f6de a4bd b9bc 0bbd e31f c13a
000001c0: 6d1b 96bd a141 4d3d 610f f2bc 60a0 943d
000001d0: a36b 9d3d 1692 f4ba b599 9a3d 53c4 85bd
000001e0: dacd 853d 76ee 983c ea6d 313b 3748 1dbd
000001f0: 8c51 2e3d 8b29 233d 8862 1e3d 763a 213d
00000200: 278e 713b 27b3 5b3d 2405 a33a 5017 74bd
00000210: fbfc ad3d 3ea6 be3d ece3 5dbd 4cf2 743d
00000220: 8188 cebb 54a8 f8bc 01f3 e9bc 6176 f1bc
00000230: 0c69 aebd 039d 0dbd d792 d93c 8a63 9abd
00000240: 0d58 42bd 4e04 453c 243c 7fbd 38ca 97bc
00000250: 280d 673d ee91 693d b454 8e3d 7c50 983d
00000260: f286 ad3d 2d11 893d 8f2b 2d3d f6b5 7dbc
00000270: 0d2b 3abd 1873 52bc 5c92 293d 560e d3bc
00000280: f34b 4e3d 73e0 30bc b682 07bd ea7a c33c
00000290: 9a21 96bd 6825 bdbc 9b43 5f3d 2aca 6a3d
000002a0: 80dd a23c 5dbe 03bd e748 91bd cf1f b8bd
000002b0: 8e7e aebd 40de 7c3d dbf1 263d 0181 55bd
000002c0: 6ec9 ed3c a837 72bc 791f aabc 0fbc 333c
000002d0: f0c3 403d 1315 973d e77e 95bd e631 38bd
000002e0: 3be3 bcbc 4415 d93d 3f2b 73bd 458b 2ebd
000002f0: 1695 c13c 56e2 3f3d 0efd 8cbd 5925 5fbc
00000300: c758 b83d 603b 1ebd 7bc8 b4bc 81b9 2c3d
00000310: c1f0 983d f6d2 303d 38b8 76bd e01f 8f3c
00000320: 3ddb 833d 2ace 943c ccd5 1e3d e906 8d3d
00000330: 4ac3 283c cb8d 903d 5572 85bc 1645 873d
00000340: 5b92 023c 3f24 88bb 784e b43c f56e 23bb
00000350: 37fc 803d d98b b63d a76b 8f3d 5708 973b
00000360: 3262 40bd 4bcb 04bd 1fdd b63c 69ce a9bc
00000370: 6930 953d 3f5f 5fbd c6cd a93d 07eb 2f3b
00000380: 3acb a23c c028 86bd c345 68bd 7759 93bc
00000390: ea14 523d 7006 653d 3dd1 bb3c 5aa3 eebc
000003a0: 9b16 0c3c 8138 b53b f033 8d3d 4850 873c
000003b0: 6157 3e3c e4d0 dd3c 8010 93bd 56c1 70bd
000003c0: 3405 403d fb22 863c 83f0 3ebd 611a e83b
000003d0: 81d1 41bb d4a7 083d 382c a1bc 2be5 34bd
000003e0: d618 90bd 32dd 44bd 2346 51bd 42b9 e0bc
000003f0: 1e54 32bd 313d 31bc 63cc 883c 997f 87bd
0.021824634 0.063299954 -0.07213466 0.082626745 0.02189267 0.07841111 -0.032609884 0.0015711945
0.0010238078 0.080694035 0.076658055 -0.023099283 0.021574192 0.029254679 -0.081448644 0.06594178
0.055822223 -0.01330504 0.033516183 -0.05970643 -0.068632066 -0.021607202 0.050805565 -0.011560236
0.038404804 0.057254516 0.060508564 -0.011244402 0.07934973 0.046469133 0.076531984 -0.012497345
0.07668152 -0.07649317 0.019070074 0.07098807 0.019709509 0.056762874 -0.012358568 -0.034991458
0.019504854 0.015115488 0.07881059 -0.041497372 0.03140305 0.00049616076 -0.051704783 -0.038867082
0.00706633 0.090048 0.07317005 -0.053141166 0.0018295216 -0.022512019 0.0029887948 -0.012949367
-0.026124276 0.022670316 -0.09918306 -0.030431077 -0.050730467 0.061458137 -0.06202655 -0.036384482
-0.056311 0.053960346 -0.030285455 0.07851613 -0.025669653 -0.02150093 0.054256696 0.04266574
0.021771442 0.08069447 -0.069297105 -0.024286624 0.03681298 0.07241152 -0.083680764 0.06757495
-0.0655751 -0.04391075 -0.0074786376 -0.06634226 -0.048170928 0.048419956 0.05847033 -0.002970274
-0.056719597 0.068845004 0.044003658 -0.07246119 -0.06730409 0.0140316365 0.047602188 0.04911153
-0.047050625 0.042589463 -0.08237084 -0.03630202 0.08065125 0.07105155 -0.0043633636 -0.040860515
0.06887851 -0.030036528 -0.048200555 -0.06261904 -0.08200839 -0.08050339 -0.034115527 0.0014734234
-0.0732945 0.050111417 -0.029548349 0.072571516 0.07686546 -0.001865926 0.075488485 -0.065315865
0.06533404 0.018668395 0.002707357 -0.038398948 0.042558238 0.03983454 0.038668185 0.039362393
0.003685841 0.05363765 0.0012437445 -0.059592545 0.08495518 0.09309052 -0.05417244 0.059801385
-0.0063028936 -0.030353703 -0.028558256 -0.029475393 -0.0851613 -0.034573566 0.026559277 -0.07538517
-0.047447253 0.012024952 -0.062313214 -0.018529043 0.05640903 0.057023935 0.069497496 0.07437226
0.084730044 0.06692729 0.04227787 -0.015485277 -0.045451213 -0.012844823 0.041399345 -0.025763672
0.0503654 -0.0107957 -0.03308364 0.02386232 -0.07330628 -0.023089126 0.054507833 0.057321705
0.01988101 -0.032163966 -0.07093983 -0.08990442 -0.08520232 0.06173539 0.040757995 -0.05212498
0.029026713 -0.014783777 -0.02076696 0.01097013 0.04706186 0.073770665 -0.07299595 -0.04496946
-0.02305757 0.10599759 -0.059367415 -0.042613287 0.02363066 0.04684671 -0.06884204 -0.013619744
0.09001308 -0.038630843 -0.022068253 0.042169098 0.07467795 0.043169938 -0.06023428 0.017471254
0.06438301 0.018164713 0.03877811 0.06886084 0.010300467 0.07058295 -0.01628987 0.06604974
0.007969464 -0.0041547115 0.022010073 -0.0024937962 0.06298106 0.089133926 0.07002955 0.0046091485
-0.046968646 -0.032420438 0.022322236 -0.020728307 0.07284624 -0.054534193 0.08291201 0.0026842968
0.019872297 -0.06550741 -0.056707155 -0.017986996 0.051289476 0.055914342 0.022926921 -0.029130626
0.008550311 0.0055304174 0.06894672 0.016517773 0.011617512 0.027077146 -0.071808815 -0.05877813
0.046879962 0.016374102 -0.04661609 0.0070832227 -0.0029574337 0.03336318 -0.019674405 -0.044163864
-0.07035987 -0.04806251 -0.05109228 -0.027432088 -0.04353725 -0.010817812 0.016699022 -0.06616134

sequential/conv2d_2/BiasAdd/ReadVariableOp/resource f4 [64]
00000000: 62cf b53b dc36 333c 4576 43bc 9a10 dc3a
00000010: 75f4 9c39 1fee 1a3c 70d5 7a3a 32f5 223b
00000020: 95c2 60bc 1573 d4bb 3609 613b d2eb 463c
00000030: 34a2 8fbc c94a 3d3c f019 c53b 757e db3b
00000040: 19bc b43a 919b 81bc fdb4 b83a 2c65 443b
00000050: 7e53 e03b b46a 483b dcb3 d03b ce5b 29bc
00000060: 4b84 53bc f95a 543c c81d 8d39 9484 1b3c
00000070: f0a9 32bc 308f f7ba 73ef 8a3c 935f adbc
00000080: f3a5 0f3b f4a2 d13a 677f 853b b4e3 0d3c
00000090: 7bcd 803a 7925 97bc 404c 533c 6a90 b13b
000000a0: 0d10 2cbc ea0e 45bc 10c9 df3b 82b0 9db9
000000b0: 796f ccbb df19 98bc 4458 0fbc bc79 203c
000000c0: 4df9 f03a 8b58 023c 9dce 67bc 0adb 8ebb
000000d0: f084 02bc 785e d23b a2e0 833a b5b3 94bb
000000e0: faf4 103c 0ca2 3d3b 45ac 71bc 2dda 6bbc
000000f0: 7fa9 0c3c 4f03 1cbc e797 d73a b420 1c3b
0.0055484036 0.010938372 -0.011930053 0.0016789616 0.00029936773 0.009456187 0.0009568548 0.0024865386
-0.013718267 -0.0064834454 0.0034337766 0.012141185 -0.0175334 0.011553475 0.006015055 0.0066984245
0.0013788968 -0.01582125 0.0014092025 0.002996753 0.0068458905 0.0030581178 0.006369097 -0.010336829
-0.012909959 0.012961143 0.00026915804 0.009492058 -0.010904774 -0.0018887278 0.016959881 -0.021163737
0.0021918982 0.0015993998 0.0040740254 0.008660246 0.0009826863 -0.018450486 0.012896597 0.005418827
-0.010501874 -0.012027482 0.0068293884 -0.00030076882 -0.0062388745 -0.018567024 -0.0087490715 0.009794649
0.0018384844 0.007955681 -0.014148382 -0.0043596076 -0.007966265 0.006419953 0.0010061453 -0.0045380243
0.008847469 0.0028935699 -0.014750545 -0.014395279 0.008585333 -0.009522273 0.0016448469 0.0023823204

sequential/conv2d_3/Conv2D f4 [64, 3, 3, 64]
00000000: f10b 233d 9997 8ebd 2bf0 00bd 284c 4e3d
00000010: 0a42 8ebc 4337 93bd e649 383d 7e62 9abd
00000020: ff23 5dbd 9729 3ebd 68e1 6bbd c6bf 33bb
00000030: 2907 5b3d 60a6 553d 0e96 0dbc c25d 89bc
00000040: 401f 3f3d 5522 2fbb b3ee 6d3c e755 2c3d
00000050: f64c 89bd 71e0 7b3d b118 56bd bfe7 363d
00000060: 18d4 353b 7e67 8dbd 7638 6cbd 5a41 0f3d
00000070: 4aba 19bd 81c1 33ba 4dd2 85bd 850e 203d
00000080: c055 7bbd 2aea 793d 9524 653d 52b3 41bd
00000090: 358e 75bd 37da ba3c a1da 5abd 5963 813d
000000a0: 649b 193d c8d7 c63c 4e1f 2cbc 1722 77bd
000000b0: 3fa9 753d c93b 1fbd 5f96 18bd 04b1 01bb
000000c0: 1fa5 723d a53f c83c 83ba 743d 6aa8 13bd
000000d0: b2a9 65bd bfee 803d c109 283c 498e d73b
000000e0: 3165 24bd fe12 ff3c 543c e83b 7ec7 2d3d
000000f0: 18ed 30bd c474 663d 95a5 033d 4eec 463d
00000100: fa89 8dbd 7be2 a23c 8110 723c a7b7 633c
00000110: a699 8abd d8e2 95bc 7bf7 473d 180b 9cbc
00000120: 359e c6bc e113 93bd 3596 0cbd 4201 33bd
00000130: 7ce0 83bd 497d 8f3c 0950 843c 1595 87bd
00000140: bd43 90bd d1b5 b13b 98c4 513d 3361 9f3c
00000150: 01e3 81bd 06fa 0c3d fd58 e4bc 98a4 74bd
00000160: d372 89bc b4a5 71bd a37c 57bd 64be f73c
00000170: a3ff 56bc f946 293d 4e30 86bd 1796 debc
00000180: d315 313d 283c 2abc 0893 04bd 0226 253c
00000190: 417c 383d 9cc4 6c3d 3c80 7cbd 805d cbbc
000001a0: ddd3 5e3d 3b31 bb3c 4405 23bd 8eab a7bc
000001b0: f055 843d b9fb 9ebd 5db2 9c3d 13a1 0a3c
000001c0: e9fd 683c 6ba5 a43c 64e8 713d 0f29 46bc
000001d0: a2fb 48bd 8bff 8dbd f189 90bd 4e72 7bbd
000001e0: 01d2 39bd 96e5 ccbc 3a5e 87bd 245d 1bbd
000001f0: 2f2e 9ebd 16a0 99bc 0ee3 1cbb a526 303c
00000200: 5e29 493d 50a7 31bd 1e5a 5e3d cdde 303d
00000210: 6c93 ccbc 2ff5 45bd aa57 84ba 317d e93b
00000220: d5a0 26bd 13e8 babc 2f5a 9cbd be71 ff3b
00000230: 915f 35bb 17fb 90bd fd77 94bb de59 d4bc
00000240: c6f8 843d 301d 263d 818d 8c3c 0886 7e3d
00000250: 2d3c b93c ed5c 04bd be24 a83c e10f 6ebd
00000260: 058f 70bd ddb0 403c f246 a03c 2933 773d
00000270: 1f97 823d 8266 d93c b9eb d1bc 13ca bd3c
00000280: 9d11 90bd 3b53 c93c dfd9 f6ba d18a 89bc
00000290: a604 183d e7ea b53b 32a7 4bbd ba86 efba
000002a0: 0cc1 afbc c907 6f3d 0e04 49bd e9f6 6c3c
000002b0: c1a3 99bd 16a2 e03b 53be 993c 4dde 17bc
000002c0: a59b ea3c a036 6bbd 45cd 09bd 9bc1 163d
000002d0: c0e6 cd3c 5817 9c3a de98 36bd eb45 da3c
000002e0: 9cbf 723d 1e90 17bd 5464 113d 7140 293d
000002f0: d851 27bd 191d 08bd 7036 d0bc e14e 18bd
00000300: 67d3 58bd fd5c 73bd 8912 be3c 72ee 073d
00000310: 1247 b1bd d08b 0cbc 778e 2bbd 2aeb 2fbd
00000320: 9914 bbbc 9a02 86bd 8044 a03c b235 22bd
00000330: 7ba4 4dbc 44ee 053c 5630 6b3d 9521 493c
00000340: 57c0 303d c5cc 5e3d f020 163d 732f 55bd
00000350: 9c64 47bd 4061 77bd 2890 e03c 60ea 74bd
00000360: 5487 7a3d 263c 973c 162c 2cbd 447a 2fbd
00000370: a7ce 28bb aa60 27bd 0d1f 82bd 137a ad3c
00000380: 6278 833d 99bf 8f3c e664 8abd 6bdb 3a3b
00000390: 4b48 abbc 7c9d 063c 681a 5a3c 3428 51bc
000003a0: 64f2 54bc 07df 2c3d cad0 bb39 aaf4 97bd
000003b0: 1c40 a1bd 5965 ca3c 7312 41bd 634b 3f3d
000003c0: 43a0 8bbd 4d2d ca3c 204c 37bd 3e69 21bc
000003d0: 9dfd 5c3a 680d 793d a1a2 3b3d 4dca 213d
000003e0: b316 33bc 2dc9 4ebd 3120 f73c 9fe5 7bbd
000003f0: 61ad 9fbb 15d0 183d f07c 963c c3ce 86bd
0.03980631 -0.06962509 -0.031479042 0.050365597 -0.017365474 -0.07188275 0.04499235 -0.07538317
-0.053989407 -0.046426382 -0.05758801 -0.0027427538 0.053473625 0.05216062 -0.008641733 -0.01676834
0.04666066 -0.0026723344 0.014522242 0.04207411 -0.06704132 0.06149334 -0.05226964 0.044654604
0.0027744826 -0.06904505 -0.057671033 0.034974433 -0.037531175 -0.00068571424 -0.06534252 0.039076347
-0.061361074 0.061014332 0.05594309 -0.047290154 -0.059950072 0.022809131 -0.053431157 0.06317777
0.037501708 0.024272814 -0.0105055105 -0.060335245 0.05997586 -0.038875375 -0.03725278 -0.0019789347
0.059239503 0.02444441 0.059748184 -0.036049284 -0.056070037 0.06295537 0.010256232 0.006578241
-0.040135566 0.031136986 0.00708727 0.04242658 -0.04319486 0.0562637 0.032140333 0.0485652
-0.069110826 0.019883385 0.014774443 0.013898767 -0.06767587 -0.018296644 0.04882 -0.019048259
-0.02424536 -0.07181526 -0.034322936 -0.04370237 -0.06439301 0.017515795 0.016151445 -0.06620232
-0.0704417 0.0054232855 0.051212877 0.019455528 -0.06342126 0.03441813 -0.027874464 -0.05972728
-0.016778385 -0.058995917 -0.052609097 0.030242153 -0.013122472 0.04132745 -0.06552182 -0.027171178
0.043233704 -0.010390319 -0.032366782 0.010079863 0.045040373 0.05780469 -0.06164573 -0.024824858
0.054401267 0.022850623 -0.039799944 -0.020467546 0.06461704 -0.07762856 0.076512076 0.008461255
0.014220693 0.020098409 0.059059516 -0.01209475 -0.0490681 -0.069335066 -0.0705756 -0.061388306
-0.04536629 -0.025011819 -0.06609769 -0.037930623 -0.077236526 -0.018753093 -0.0023939046 0.010751401
0.049111716 -0.043372452 0.05428516 0.04318123 -0.02497264 -0.04832953 -0.0010096927 0.0071255197
-0.040680725 -0.02281574 -0.07634389 0.0077955415 -0.002767537 -0.070791416 -0.0045309053 -0.025921758
0.06492762 0.04055518 0.017157318 0.06213954 0.022611702 -0.032315183 0.020525333 -0.058120612
-0.058730144 0.0117609175 0.01956508 0.060351525 0.0637648 0.026538137 -0.025625097 0.023167646
-0.070346095 0.02457582 -0.0018833241 -0.016789826 0.037113808 0.005551684 -0.049719997 -0.0018274405
-0.021454357 0.058357034 -0.049076132 0.014463165 -0.07501937 0.0068552596 0.018767511 -0.009269309
0.02863867 -0.05742514 -0.033643026 0.03680573 0.025134444 0.0011908812 -0.04457938 0.026644668
0.059264764 -0.037002675 0.03549607 0.04132122 -0.040849537 -0.033230875 -0.025416583 -0.0371846
-0.052935984 -0.059414852 0.023202198 0.033186384 -0.08656134 -0.008578256 -0.041883912 -0.04294888
-0.02283697 -0.06543465 0.019563913 -0.03960199 -0.012551422 0.008174483 0.057419144 0.012276073
0.04315218 0.054394502 0.036652505 -0.052047204 -0.048679933 -0.06039548 0.027412489 -0.05979383
0.061164215 0.018461298 -0.04203423 -0.04284121 -0.002575794 -0.04086367 -0.06353579 0.021176374
0.064194456 0.017547416 -0.06757526 0.002851213 -0.020908495 0.008216258 0.01331196 -0.012765933
-0.012997244 0.042204883 0.0003582298 -0.07419713 -0.07873556 0.02470653 -0.047136735 0.046702754
-0.06817677 0.024679804 -0.044750333 -0.009851752 0.00084301253 0.0608038 0.045809392 0.03949957
-0.010930705 -0.050484825 0.030166717 -0.06149828 -0.0048729633 0.037307817 0.018370122 -0.065824054

sequential/conv2d_3/BiasAdd/ReadVariableOp/resource f4 [64]
00000000: b0b8 6dbc 5387 ef3b 3d10 85bb 2b86 2d3c
00000010: 1f1c 943b bdbe 32bc efad 863a f573 ecbb
00000020: 50c0 c73b 490e cb3b d527 eabb cd26 193a
00000030: a0c4 4f3b 41a6 333c a892 5a3c 5e79 0e3c
00000040: db28 70bc a937 fe3b f328 83bc 37fb 71bc
00000050: 5911 323c 6880 0dbb 3566 e9bb f64f 13ba
00000060: da26 2c3b aeae a1bc 60d8 04bc 6d60 2ebc
00000070: bf04 743b 6ddc 07bc b16e 31bc ecd4 82bc
00000080: 61c2 583c be74 2a3c 0984 183c 231b 743b
00000090: c166 dd3a b8b1 743b fce4 32bc 2478 433c
000000a0: 5602 8b3b a858 213b e80e 43bc 6b6a c4bb
000000b0: 4348 9fbb 731c 78bb dd1b f63a 3f27 72bb
000000c0: a059 f4bb 33e0 e9bb 2753 423a b61f bf3b
000000d0: 4534 1fbb 4bb3 42bc c64d f1bb 95c1 15bb
000000e0: 1153 2c3b 1db7 bd3c c784 ae3b c854 293c
000000f0: 55bd 55bc 132e 023c 3a6b 113b 5975 d5bb
-0.014509365 0.007309833 -0.0040607736 0.01059107 0.004519954 -0.010909733 0.0010275225 -0.0072159716
0.0060959235 0.0061967713 -0.0071458616 0.00058422686 0.003170289 0.010964931 0.01334063 0.008695928
-0.014658178 0.0077581 -0.016010737 -0.014769367 0.010868394 -0.0021591429 -0.0071227797 -0.000561952
0.0026268275 -0.019736614 -0.008108228 -0.010643107 0.0037234274 -0.0082923 -0.010829614 -0.01597067
0.013229937 0.01040381 0.009308823 0.003724762 0.0016891585 0.0037337374 -0.010918852 0.011930499
0.004242222 0.0024619494 -0.011905409 -0.0059941313 -0.004860909 -0.0037858754 0.0018776614 -0.0036949662
-0.007456973 -0.0071373223 0.00074129034 0.0058326377 -0.002429263 -0.011883567 -0.0073640076 -0.002285098
0.0026294629 0.023158604 0.005325887 0.010335155 -0.013045629 0.007945555 0.0022189156 -0.006514233

sequential/conv2d_4/Conv2D f4 [64, 3, 3, 64]
00000000: 1d3f 27bc 5111 b9bc 5566 403d b1aa 0dbd
00000010: 3f5d 8bbd dd51 4b3d 1a61 f0bc 1c7e 93bd
00000020: 9d52 5c3b d951 1f3d 1219 0bbd e1e3 b63b
00000030: 31f2 bb3c 5d22 3e3d 2935 81bd 62fc 0bbd
00000040: c728 813c 8bad 26bd a78b 143d 61db 723c
00000050: 15bf 2b3d 46a4 313d 91ec 233d f0dc 593d
00000060: 9cfb 65bd db3e b8bc e728 63bd 0bf4 84bd
00000070: c429 183d 4451 5fbd 2e3a 993c 31ba eebc
00000080: 7931 80bd a14a 7dbd 3dc6 6c3d 3692 27bc
00000090: 5516 71bc a63a 67bd 8c88 36bd 86e7 b03c
000000a0: 962d 1d3b 343f 243c abc5 5a3d 16ae 533d
000000b0: 5e3f c33c edc1 f53c b039 80bd cb52 d7bc
000000c0: ae3d 823c 99b1 2f3d e301 ae37 b6c8 0e3c
000000d0: 2191 57bd df37 a0bd 2b34 18bd b4e6 6bbd
000000e0: bef9 52bd b1b7 b2bd 7672 ed3c 54db a7bd
000000f0: 2ab5 c63c 953a 0ebd bb7f a13c c475 5d3d
00000100: 019b 91bd 081d debc d1da 64ba a21e f8ba
00000110: e21f cebb a55c 88bd 8067 ba3c 2d91 10bd
00000120: 83b5 343d 6b3f 2e3d c827 51bc 7935 973c
00000130: c562 a1bd c72f e13c 0e9c 5f3c b74b 6e3d
00000140: 5888 80bb 679e 0d3d 8013 573d c3b3 b8bb
00000150: 6e6f 433d 52b9 ccbc 5c4c 813d f326 6ebd
00000160: 222e 4d3d 0167 7fba f5b3 61bd 6bba 75bd
00000170: d7a3 6f3d 25d9 5e3d bab6 8f3b 9fda e53c
00000180: 000f 87bd 8105 493c cf5d 58bd 8b6c 61bc
00000190: b520 073d 308d a3bd ed07 acbd feba a2bc
000001a0: 0fbc ca3c 2233 be3b 769a 0c3d 89eb f4bc
000001b0: 9857 25bd bfa1 2dbd bb64 b43c 2ed1 483b
000001c0: 2b9e 483c a7fd 133d 4524 85bd 9683 803c
000001d0: c79b 8cbd 0a02 babb 61ad 0f3d 1b09 453d
000001e0: 7adf a2bd 7e94 ff3c e3fb f23a cb0f 453d
000001f0: 8106 bb3c fab0 93bd a088 ed3c 2f6c a6bb
00000200: 23b7 0ebb bc4b 053d 423e 87bc bf44 5dbd
00000210: cf0b 84bd b5b2 f8bc f33e 1aba 9965 e83b
00000220: 54ce 6bbd df28 443d 4f73 073d d927 513d
00000230: 0fea a6bc c979 703b c2c1 3a3c 615f 78bd
00000240: 1cd8 563d 6849 debc 0364 fa3c 64c7 47bd
00000250: afab 68bd 917e f6bb 0322 e33c d004 9dbd
00000260: a720 cdbc 61de b23c 6c75 303c 8458 ffbc
00000270: 9e9a b5bc ac2a c9bc 63d0 5a3d 2484 fc3c
00000280: 1e5b 4a3c ffce 2dbd c3f9 843c 44c9 ffbc
00000290: b05f 35bd 171e 8dbd c4d2 f73c a423 6cbd
000002a0: 8500 1b3d c112 4abd f33b bfbc 4bfe 823d
000002b0: faad 3f3d 6ff7 78bd 3253 4e3d c0df eb3c
000002c0: 3247 393d 92a3 9abd e876 e23c a150 2e3c
000002d0: 686b 433d dfcf 5f3d 11e3 35bb 42bf 81bc
000002e0: b09d 0e3d 8840 66bd 1edf 86bb 8c73 1cbc
000002f0: ba39 bcbc c33d e93c 9f88 a8bc fe7c ce3c
00000300: 0eef 8abd 8a07 b5bd 5033 633c 9c20 fe3c
00000310: 5e32 a0bd b2e8 02bd 7d08 8abd a503 e6bb
00000320: ccc9 573d f310 48bd b457 13bd f7e7 49bd
00000330: 8130 363d 1646 eeba f2f8 753d e2c5 793c
00000340: 88c2 97bc 5b69 353c 5bd3 69bc a0e3 173c
00000350: 1c2f 303d 4f56 73bd fe6f ac3b 3985 633d
00000360: c0d9 733d ac8b 21bb 4dd6 363c 3f01 843d
00000370: d80f a8bd 02af 013d c484 58bc 4592 85bc
00000380: 6ad4 17bd 00d1 2fbd 4b18 e3bc 1c4c 4b3d
00000390: aac8 69bd 3853 51bd bb7a 88bd ed48 013d
000003a0: 9e5c 803c 4f71 be3c 3dd0 40bd 3c0e 163d
000003b0: de28 253d f206 42bd f7a9 07bd a550 d33c
000003c0: d7cc fc3c ba36 10bc 9049 8fbd aed6 dabb
000003d0: f22d eebc 6c48 83bd 0cb0 f2bc ed40 92bc
000003e0: 31a5 283d e857 e8bc 841f 203b 45d1 02bd
000003f0: cb47 80bd 14ee 5cbd 0d1a b53c 1b63 61bd
-0.0102079185 -0.022591265 0.04697259 -0.034586612 -0.06804895 0.049638618 -0.029343177 -0.07201788
0.0033618577 0.038896415 -0.033959456 0.0055813645 0.022942634 0.04641949 -0.063089676 -0.034176238
0.015766514 -0.040692847 0.036265995 0.014822812 0.041930277 0.043369554 0.04002053 0.053189218
-0.056148157 -0.02249091 -0.05545893 -0.0649186 0.037149206 -0.05452086 0.0187045 -0.029141517
-0.06259436 -0.06183875 0.057806242 -0.0102277305 -0.014714797 -0.056452416 -0.044563815 0.021594774
0.002398347 0.010024834 0.053411167 0.051679693 0.023833927 0.029999698 -0.06261003 -0.026284596
0.015898552 0.04289398 2.0743295e-05 0.008714845 -0.05262864 -0.078231566 -0.037159126 -0.057593063
-0.051507704 -0.087264426 0.028985243 -0.081961304 0.024256308 -0.034723837 0.019714227 0.05406739
-0.07109643 -0.027113453 -0.0008730116 -0.0018930028 -0.006290422 -0.066582955 0.02275443 -0.0352947
0.044118416 0.04254095 -0.012765832 0.018458115 -0.07880167 0.027488602 0.013648046 0.058177676
-0.0039225034 0.034574892 0.05250883 -0.0056366636 0.04771369 -0.024990711 0.063133925 -0.058142614
0.050092824 -0.0009742827 -0.05510326 -0.059992235 0.05850586 0.054406304 0.0043857964 0.028058348
-0.06594658 0.012269379 -0.052823838 -0.013758789 0.032990176 -0.07985914 -0.08399949 -0.019864555
0.024747876 0.0058044354 0.034326993 -0.029897468 -0.04036674 -0.04239058 0.022020688 0.003064226
0.012244741 0.036130574 -0.065010585 0.015687745 -0.0686565 -0.0056765126 0.035077456 0.048104387
-0.07952781 0.031198736 0.0018538203 0.048110764 0.02283025 -0.0721149 0.028995812 -0.0050788145
-0.0021776638 0.03254293 -0.016509179 -0.05402064 -0.06447565 -0.030358652 -0.0005884014 0.0070921895
-0.057569817 0.04789054 0.03306895 0.051063392 -0.02037528 0.0036693683 0.0113987345 -0.060637835
0.05245219 -0.027134612 0.030565267 -0.048774138 -0.056804355 -0.007522412 0.027726179 -0.076669335
-0.025039984 0.021834554 0.010770183 -0.031170137 -0.022168454 -0.02455648 0.05342139 0.030824728
0.012350826 -0.042433735 0.016232377 -0.0312239 -0.044280708 -0.06890505 0.030251868 -0.057651177
0.037842292 -0.04933429 -0.023344016 0.06396159 0.046796776 -0.060782846 0.05037231 0.028793216
0.045233913 -0.0755073 0.02764459 0.010639341 0.047709852 0.0546416 -0.002775375 -0.01583827
0.03481835 -0.056213886 -0.004115953 -0.009549033 -0.022976745 0.028471833 -0.020572959 0.025206085
-0.06783877 -0.088393286 0.013867214 0.031021409 -0.07822107 -0.031960197 -0.067399 -0.0070194774
0.052682683 -0.04884429 -0.035972312 -0.049293485 0.04447985 -0.0018178846 0.060051866 0.015244933
-0.018525377 0.011072482 -0.0142715825 0.009270579 0.043013677 -0.059408482 0.005262374 0.055546973
0.059533834 -0.0024649901 0.011159492 0.0644555 -0.08206147 0.03166104 -0.013215248 -0.016305098
-0.03706781 -0.042923927 -0.027721545 0.04963313 -0.057076134 -0.051104754 -0.06664034 0.031563688
0.015669163 0.02324739 -0.04707359 0.03663467 0.040322177 -0.047369905 -0.033121075 0.02579529
0.030859394 -0.00880211 -0.06996453 -0.006678424 -0.029074643 -0.06410298 -0.029624961 -0.017853225
0.041173164 -0.02836223 0.0024432847 -0.031937856 -0.062636934 -0.053937986 0.022107149 -0.055026155

sequential/conv2d_4/BiasAdd/ReadVariableOp/resource f4 [64]
00000000: 239c bdbc 9a8e 32bc c0d8 d93b ec36 843c
00000010: 1447 0a3c b38c eebb 8605 5bbb c721 86bb
00000020: de3f 4b3b 8f74 483c 66df 28bb c481 933b
00000030: e0e1 ec3a 01c7 2ebc ff41 d13b e485 c8ba
00000040: ab1a 723a 367f 8a3c 7dbd 353c 2b07 fb3a
00000050: ade6 08bc 6d07 833a 32c7 b1bb dae1 a0bb
00000060: b58d 2d3a f3ed 87bc 3265 edbb 5540 e1bb
00000070: 04a0 3bbc 3bed 96bc e88d 76bb fd55 5cbc
00000080: 3b4f bc3b af38 3bbb b3b2 bbbb 1110 40bc
00000090: ee6d 97b9 f1d0 f63b 7dd5 403b 1e92 aabc
000000a0: 81e3 0dbc 18e2 b33b 0990 5b3b e044 0abc
000000b0: 1947 5cbb 2245 a23c 7275 12bc 3a9e e9bb
000000c0: c729 d2bb 68dc ddbb 79b5 1c3c 1e33 123c
000000d0: fd61 d4bb a19f 8cbb e500 a63a 3f7c b83b
000000e0: 8721 d9bb 8240 08bc 7df9 d33b 75f8 4bbc
000000f0: 3b8c 44bc f4b2 073c 17c9 143c 71e9 ab3b
-0.02314574 -0.010898257 0.006648153 0.01613947 0.008439798 -0.0072799562 -0.003342004 -0.004093382
0.003101341 0.012234821 -0.0025767921 0.0045015533 0.0018072687 -0.010667563 0.006386041 -0.0015298692
0.0009235541 0.016906362 0.011092541 0.0019151916 -0.008355779 0.000999672 -0.0054253573 -0.004909736
0.0006620542 -0.016592955 -0.0072447294 -0.006874124 -0.011451725 -0.018423667 -0.0037621204 -0.013448236
0.0057467497 -0.0028567722 -0.0057280897 -0.0117225805 -0.00028882868 0.007532232 0.0029424124 -0.020821627
-0.008660198 0.005489599 0.00335026 -0.008439273 -0.0033611713 0.019808356 -0.008939134 -0.007129458
-0.0064136717 -0.0067706592 0.009564751 0.00892332 -0.0064814077 -0.00429149 0.0012665062 0.0056300457
-0.006626311 -0.008316161 0.0064689503 -0.0124493735 -0.011996324 0.008282412 0.009081147 0.0052463342

sequential/conv2d_5/Conv2D f4 [64, 3, 3, 64]
00000000: 92e9 8bbd 24aa abbc e31e 0f3d 8c40 893d
00000010: 4434 4bbd c54b 043d 2a38 a13d 34eb 75bc
00000020: 8ec0 9b3c 3d73 d03b 31bf 6c3c 5a2f 903d
00000030: ad6d 343d e4e2 483d c933 523d 4e26 6a3d
00000040: 775c 30bc d004 7e3d 38cc 6c3d 4783 133d
00000050: 898b 933c 7f0f 93bc 66a3 733d 7572 9d3c
00000060: fda0 893c c3b0 6c3b ce5b 8a3d 7932 81bc
00000070: e47d 7f3d 2920 813d e70a 903a f580 913d
00000080: f6a2 eabb e3d9 723c 21e7 9e3d 2c09 513d
00000090: f053 4bbd d8c6 62bc a104 40bd e64d 3d3d
000000a0: 2748 fd3c ee7a 803d f05c a7ba 4629 673c
000000b0: 5c97 da3c cccf 2d3c 1db1 e3bc a967 c4bc
000000c0: 85a6 eb3c d14b 3bbc 59f5 013d b0f5 b1bc
000000d0: fc12 2e3d a7a1 94bd 6b4e 95bc f7c5 a63c
000000e0: a4b8 51bd f2a6 eabb b422 753d 3604 afb9
000000f0: 93b1 35bd 2be8 883d 7a66 1fbd b82d aa3d
00000100: 49a4 12bc ed9a 75bc 4d77 94bd e9e7 6b3c
00000110: 6c83 73bd 0bf5 e93c 72df a23d fac0 813d
00000120: a405 063d 8771 0abd 4a74 113c 5770 003d
00000130: 662d e2bc 3628 43bd 789b 603d 2519 1f3d
00000140: 2c7e 53bd 92da 15bd c3dc f83c b325 1a3c
00000150: 6caf 153d 199d 353d 0285 2bbd 235c 963d
00000160: 8290 20bd 7f71 2dbd 1423 81bd 0f8d 16bd
00000170: f99c 833d 6573 1f3d ac07 6b3d 6027 573d
00000180: 8c2d 0ebd f8bf 39bc 2f10 613d 2f96 04bb
00000190: 3800 11b9 33be 6e3a 66ea 2a3b a4be 683d
000001a0: bb1c 53bd 3ba0 cbbc 7b01 59bd 7880 593d
000001b0: 4f31 353d f71f 30bd 879b 8f3c ac6f 543d
000001c0: dde2 5cbd 6adb 803d fce1 d2bb 517f 12bd
000001d0: 3fe5 033d 5b2d ed3c a8c4 94bd c119 283c
000001e0: cbec fcbc 1e99 9f3d 40ba 8f3d de23 893d
000001f0: b965 903d a3f2 063d 266c 18bd 38e2 36bd
00000200: 3634 84bd 622f ba3b ec43 febc e34a da3c
00000210: a5c7 493d 4322 463d 01d2 283d 2b5e a3b9
00000220: 2fa6 153d 05fe bc3c efc6 30bb 0911 8f3d
00000230: 4bde 8d3d 613b acbb 8c31 8f3d 747d c83c
00000240: b215 063d d0b2 31bd a53e 4a3d c3da 9d3d
00000250: cbf6 053c 194a 673c d343 843d c70d 10bd
00000260: 2366 29bd d276 52bd ff8e 8b3d 875b 833c
00000270: 5412 393c bf0f 27bd ac57 793d 1be4 993d
00000280: a195 9b3c 1113 9d3c 878c 1f3d 9075 12bd
00000290: 1142 59bb 11d1 963c cba8 4cbd 310b 22bd
000002a0: 5649 533d 2329 eabc da8f 2a3d 1892 3abc
000002b0: b399 d4bb 3560 483b b78b 89bd 2d15 b23c
000002c0: a9a7 3f39 ef7d 0b3d 8013 843d afe8 8c3b
000002d0: 650c 06bd 9cd4 5dbd 589c 23bd 91e7 733d
000002e0: b9d0 8c3d 3b4f 1dbd 2d52 21bd 6825 393d
000002f0: e167 ac3b b1be 95bd 24a6 663b dfbe 3d3c
00000300: 0b57 8bbd 207e f93a ee42 35bc f500 80bd
00000310: 338b 5fbb 17db 27bd 4642 c5bb 9bac 68bd
00000320: e58c c1bc 2340 72bc 455d b03d fa79 3b3d
00000330: 2722 a33d a8e6 4bbc b013 ecbc cd09 c0bc
00000340: e290 e03c 5189 29bd f445 f0bc 4d8c 45bc
00000350: c852 c2bb 0314 033d b4b0 74bd b78a 433d
00000360: d524 b2bc efce f33a 6542 17bd b64e 053b
00000370: 1967 403d fa0e fd3c d88d 20bc 81a7 963d
00000380: 1072 783d 2b8a b8bc a206 91bb 4dcd 1b3d
00000390: 668e d7bb 2c38 4bbd f166 233d b4a5 7b3c
000003a0: ac46 9f3d 3ebe 62bc b737 3cbd 5a1a 4f3d
000003b0: 444f cc3c b35b 723d 1ebb d2bc 5a62 88bd
000003c0: d416 433d c47e 04bd d10d 573d 2770 60bc
000003d0: d313 383d 1b6c ca3c 02d5 8a3d 8bb6 61bd
000003e0: e33d 65bd 48a0 1f3d b694 1bbd 9303 5e3d
000003f0: 3f92 0bbd 68bc 74bd 3a09 853d c1af 26bc
-0.068316594 -0.020955153 0.034941565 0.067017645 -0.04961039 0.032298822 0.078720406 -0.01500969
0.019012716 0.0063613937 0.01444988 0.070402816 0.044049907 0.049044505 0.051318917 0.057165436
-0.010764233 0.06201631 0.057811946 0.036013868 0.018010871 -0.017951725 0.059482 0.019219616
0.016800398 0.00361161 0.067557916 -0.015771138 0.062375918 0.06304962 0.0010989577 0.07104675
-0.0071605397 0.014822456 0.07758928 0.051034138 -0.049640596 -0.013841353 -0.046879414 0.046216868
0.030918194 0.06273447 -0.0012768786 0.014108961 0.026683502 0.010608625 -0.027794415 -0.02397521
0.028765926 -0.01143165 0.031728122 -0.021723598 0.042498574 -0.07257395 -0.01822587 0.020358069
-0.051201478 -0.0071610147 0.05984755 -0.00033381738 -0.0443588 0.066849075 -0.03891609 0.083095014
-0.008950301 -0.0149905505 -0.07249317 0.014398553 -0.059451506 0.028559228 0.07952775 0.063356355
0.032720223 -0.033799674 0.008877823 0.031357136 -0.027609538 -0.04764577 0.054835767 0.03884234
-0.051634 -0.036585398 0.030378705 0.009408402 0.03654425 0.044339273 -0.041874893 0.073417924
-0.039200313 -0.042344566 -0.06305519 -0.036755618 0.064264245 0.03892841 0.057380363 0.052527785
-0.034711406 -0.011337273 0.054947075 -0.0020231118 -0.00013828359 0.00091073214 0.0026079654 0.056822434
-0.05154107 -0.024856677 -0.052979928 0.053101033 0.044236477 -0.042999234 0.017530216 0.05186431
-0.05392729 0.0629185 -0.006435631 -0.03576595 0.032201048 0.028952291 -0.07264072 0.010260046
-0.03087463 0.07792877 0.07017946 0.06696294 0.07050652 0.03294624 -0.037212513 -0.044649333
-0.06455271 0.005681918 -0.031038247 0.026647037 0.04926266 0.04837252 0.0412159 -0.00031159943
0.03653544 0.023070345 -0.0026974042 0.06985671 0.06927165 -0.005256102 0.06991872 0.024473883
0.032735534 -0.04338342 0.04937615 0.07707741 0.008176516 0.014116787 0.06458249 -0.03516939
-0.04135717 -0.051382847 0.06814384 0.016034855 0.011295874 -0.0407865 0.060874626 0.07514211
0.018992247 0.01917413 0.038952377 -0.035756648 -0.003315095 0.018410238 -0.04996566 -0.039561454
0.05158361 -0.028584069 0.041641094 -0.0113873705 -0.006488049 0.0030574922 -0.067161016 0.021738613
0.00018277638 0.034055647 0.06449032 0.004300199 -0.032726664 -0.05415784 -0.039944023 0.05954701
0.06875748 -0.03840564 -0.03938501 0.04520169 0.005261407 -0.07311762 0.0035194242 0.011581152
-0.068037115 0.001903478 -0.011063321 -0.062501825 -0.0034110069 -0.040980425 -0.0060198633 -0.056805234
-0.023626754 -0.014785799 0.0861154 0.045770623 0.079654984 -0.012445129 -0.028817981 -0.023442173
0.027412836 -0.04139072 -0.029330231 -0.012057376 -0.0059302785 0.032001507 -0.05973883 0.04773971
-0.021746079 0.00186011 -0.036928553 0.0020341105 0.04697332 0.03089093 -0.009799443 0.073561676
0.060655653 -0.022526821 -0.0044258395 0.038037587 -0.0065782545 -0.049614117 0.039893094 0.015359331
0.077771515 -0.013839303 -0.04595157 0.05056224 0.02494014 0.059169482 -0.02572399 -0.06659384
0.047629192 -0.032347456 0.05250341 -0.013698614 0.04494078 0.024709752 0.06778909 -0.055105727
-0.055967223 0.038971215 -0.03798362 0.054202627 -0.034075018 -0.05974999 0.064959005 -0.010173739

sequential/conv2d_5/BiasAdd/ReadVariableOp/resource f4 [64]
00000000: 207b ea3a 47bd 0e3a 0657 ea39 8555 66bc
00000010: 4a36 a6bb 0f6a 75bc 8b16 233c b9f8 cb3c
00000020: 0b12 48bc fe7c ebbb 9b06 ecbb c977 21bb
00000030: 7d80 b93c 4de5 893c acec 423c 6ebf 63bb
00000040: 901d 04bc 9b14 0c3a 2f7f 13bb 6e89 f7bb
00000050: 7d24 98bc b9d9 39b9 3878 38bc df76 8f3b
00000060: 464d f6ba a39e aabb 8129 78bc 2094 86bc
00000070: a1cc ffbb 9ee8 7d3c a41c 9c39 0ba0 373c
00000080: b018 d93c 611a a9bc 4d43 b8ba 6b80 8b3c
00000090: 7c4e 813c dd00 8b3c cfe8 35ba 9e63 27bc
000000a0: 2109 083c 0499 e0bb 2577 f9bb d10a a5ba
000000b0: 57b5 c9bb de1a 93bc 1b9c e9bb 5e6f 85bc
000000c0: 9f5b e83a 9bf9 1fbb 398a 98bc 445b 4bbc
000000d0: 8dd5 1abc 6b8a d1bb d8e4 9e3b 1224 0abc
000000e0: 023f e9bb ff5f 27bc d5be 12bc 1879 ad39
000000f0: bf48 35bc 3d8e e2bb 9e0e 3cbc df53 a2bb
0.0017889477 0.00054450746 0.00044696796 -0.014058475 -0.0050723897 -0.0149789 0.009954105 0.024898874
-0.012211333 -0.007186531 -0.007202936 -0.0024638048 0.022644276 0.016832972 0.011897247 -0.0034751552
-0.008063689 0.00053436466 -0.0022506227 -0.0075542247 -0.018572086 -0.00017724083 -0.011259131 0.004378184
-0.001879134 -0.0052068993 -0.015146614 -0.016428053 -0.007806376 0.015497355 0.00029775978 0.011207591
0.02650103 -0.020642461 -0.0014058143 0.017029008 0.015784495 0.016968185 -0.0006939293 -0.010216622
0.008302958 -0.0068541784 -0.00761308 -0.0012591725 -0.0061556506 -0.017957147 -0.007129205 -0.016288456
0.00177275 -0.002441025 -0.018620597 -0.012411896 -0.009450329 -0.0063946745 0.0048490576 -0.008431451
-0.007118107 -0.010215758 -0.008956631 0.00033087353 -0.011064707 -0.006913929 -0.011478094 -0.004953846
